actor.pth (torch_old, 185329 bytes, 6 tensors)

fc1.weight f4 [196, 33]
0.31303883 0.4883585 -0.12001079 -0.15556811 0.01746806 0.37020555 -0.016466636 0.07063703
0.6289093 -0.18191132 0.01810537 0.3417107 -0.13207135 0.11247319 0.28817758 0.0122923935
0.4361345 -0.4233007 0.43818733 0.1242835 0.3630373 -0.07023154 0.18263303 -0.14125681
0.09443948 -0.15837996 -0.07475787 0.42481408 -0.1648233 0.015438188 -0.37028342 0.029134134
1.4534098 -0.04031435 -0.35325757 0.08946926 0.20241632 -0.057368364 0.07641716 0.18276106
-0.22869313 -0.17255302 -0.18259895 -0.014232116 0.08691335 0.007671873 0.046061017 0.57920265
-0.49918842 -0.1361616 0.22798765 0.15293927 -0.049502894 0.1315643 0.17398554 0.0978695
0.13777576 0.15566416 -0.09086525 0.08192834 0.0071179057 0.5023295 0.009169986 -0.028167326
-0.027627874 -0.81908804 0.00035898323 0.31818542 0.041499183 -0.18635455 -0.040577378 -0.11591998
0.09304614 -0.26425773 -0.2616194 0.07855768 0.015493169 0.023585297 0.052001383 -0.54894984
0.13211435 0.04101273 -0.044204906 -0.369347 0.16124034 -0.33729047 -0.18684465 0.025164295
-0.77425957 0.19256032 -0.049506854 0.3723187 0.21245207 0.25252572 -0.12328649 -0.03296861
-0.23759314 0.00866502 0.0057262923 0.027940325 -0.24770552 -0.1272933 0.12693043 -0.0040691774
0.0066671697 -0.1927526 -0.013749313 -0.47174686 0.25889346 0.10427804 -0.10889784 0.19276062
0.20248435 0.20755394 0.4654554 0.35707954 0.103502356 -0.21996076 0.109138854 0.12413605
-0.0025264192 0.18045254 0.16499034 -0.062240098 0.24974291 -0.04099086 0.042775925 -0.39346492
-0.011283178 -0.02194514 -0.03079094 1.7637558 -0.06296661 0.13727126 0.83944005 -0.21798334
-0.13673551 0.11587365 0.055121105 -0.14190453 -0.02666593 -0.024572331 -0.1559025 -0.12613186
0.26049396 0.2173542 0.39101315 -0.007080415 0.25452188 -0.10287972 -0.5717876 -0.13494462
-0.18202597 -0.12704208 -0.06666072 0.1842895 0.06109623 0.4548907 0.21018684 0.272441
-0.054512728 0.023937706 -0.31865335 0.03212277 -0.24388257 0.8134134 0.32417488 0.2056932
0.09725166 -0.16805431 0.3496963 0.025199117 -0.1923966 0.085365154 0.16433068 -0.041781213
-0.04523386 -0.07579065 -0.6209488 -0.3456789 -0.016773412 0.14277063 0.17469189 0.06790685
0.23639649 -0.070708774 0.049376816 0.17436597 -0.25164106 -0.15351193 -0.0046580816 0.17788628
0.25870234 -0.28977573 -0.025836168 -0.2540321 -0.0053161522 -1.2498493 0.044500448 0.19319251
0.18467398 -0.017094815 0.24895817 0.35430783 0.06349852 0.16995609 0.15851215 -0.28368464
-0.05444956 -0.06341827 -0.07035522 0.3356432 -0.15894212 -0.040977757 -0.0039265584 -0.028854992
-0.13975595 0.18259469 -0.19026996 0.0929294 0.023672774 0.06423673 -0.037398767 -0.020536331
-0.056123324 0.38385507 -0.35460082 0.028080719 -0.35916057 0.0063204733 1.991248 -0.3440838
0.010069444 0.2424743 0.011088021 0.10781791 -0.096383914 -0.09979673 0.0056180987 -0.22186482
-0.2909554 -0.21090597 0.13024046 0.09356127 0.16815321 0.10326662 -0.085083924 0.24249843
0.25235665 -0.22265315 0.16358186 -0.11172272 0.1714673 -0.07845074 -0.11342545 0.19653499
00000000: a046 a03e 200a fa3e 38c8 f5bd 3f4d 1fbe
00000010: 2d19 8f3c 958b bd3e 0ae5 86bc 26aa 903d
00000020: 3300 213f f646 3abe b751 943c b4f4 ae3e
00000030: b63d 07be 5858 e63d 038c 933e 0966 493c
00000040: 054d df3e dfba d8be 175a e03e 5988 fe3d
00000050: 06e0 b93e 8ed5 8fbd 2704 3b3e a0a5 10be
00000060: 7c69 c13d 5b2e 22be a71a 99bd 3b81 d93e
00000070: 70c7 28be 74f0 7c3c ca95 bdbe b5aa ee3c
00000080: 5509 ba3f a920 25bd 2dde b4be a93b b73d
00000090: 3946 4f3e 17fb 6abd 9a80 9c3d b725 3b3e
000000a0: 882e 6abe bdb1 30be 38fb 3abe d22d 69bc
000000b0: a0ff b13d 5664 fb3b 7aaa 3c3d a046 143f
000000c0: a095 ffbe f26d 0bbe 9875 693e 1d9c 1c3e
000000d0: 8cc3 4abd cbb8 063e 4429 323e ce6f c83d
000000e0: 1715 0d3e 6d66 1f3e 8f17 babd 0cca a73d
000000f0: 523d e93b ab98 003f b53d 163c 2abf e6bc
00000100: da53 e2bc c1af 51bf ea35 bc39 33e9 a23e
00000110: 0cfb 293d bad3 3ebe 7734 26bd 7467 edbd
00000120: fa8e be3d ca4c 87be faf2 85be d9e2 a03d
00000130: 10d7 7d3c f435 c13c 67ff 543d fa87 0cbf
00000140: fc48 073e f7fc 273d 3410 35bd 0d1b bdbe
00000150: 301c 253e 56b1 acbe 3454 3fbe 5a25 ce3c
00000160: e035 46bf 882e 453e b3c7 4abd 8fa0 be3e
00000170: 098d 593e 0d4b 813e a17d fcbd 180a 07bd
00000180: 9e4b 73be baf7 0d3c 9fa3 bb3b 1ce3 e43c
00000190: 84a6 7dbe 2d59 02be 0dfa 013e bc56 85bb
000001a0: 4678 da3b f060 45be cc44 61bc ce88 f1be
000001b0: af8d 843e ba8f d53d d505 dfbd 0a63 453e
000001c0: 0f58 4f3e 0589 543e 2c50 ee3e 21d3 b63e
000001d0: 0bf9 d33d 653d 61be 3184 df3d 0b3b fe3d
000001e0: 4892 25bb 8dc8 383e 3af3 283e 79ef 7ebd
000001f0: 9bbc 7f3e 08e6 27bd cf35 2f3d 3c74 c9be
00000200: 14dd 38bc 4bc6 b3bc 483d fcbc c0c2 e13f
00000210: a3f4 80bd d690 0c3e 8be5 563f 0637 5fbe
00000220: 6504 0cbe 2a4f ed3d abc6 613d 6c4f 11be
00000230: 8272 dabc ea4b c9bc e8a4 1fbe b628 01be
00000240: 775f 853e 1992 5e3e e032 c83e d302 e8bb
00000250: b150 823e 9ab2 d2bd ac60 12bf ec2e 0abe
00000260: 0465 3abe 5217 02be 6a85 88bd 63b6 3c3e
00000270: 0a40 7a3d 6fe7 e83e 383b 573e 637d 8b3e
00000280: bd48 5fbd 0219 c43c 8826 a3be 2a93 033d
00000290: 5abc 79be dc3b 503f 40fa a53e 3da1 523e
000002a0: e12b c73d 6e16 2cbe 650b b33e 616e ce3c
000002b0: 9d03 45be edd3 ae3d 4d46 283e c722 2bbd
000002c0: 2447 39bd 2138 9bbd 80f6 1ebf d3fc b0be
000002d0: 6568 89bc 7732 123e 6ee2 323e bf12 8b3d
000002e0: ec11 723e c3cf 90bd 583f 4a3d fe8c 323e
000002f0: 19d7 80be 3b32 1dbe d2a2 98bb d227 363e
00000300: a274 843e 7c5d 94be 5fa6 d3bc 7f10 82be
00000310: 1e33 aebb 10fb 9fbf 1a46 363d 42d4 453e
00000320: 2d1b 3d3e 6d0a 8cbc e4ee 7e3e d667 b53e
00000330: 830b 823d f808 2e3e 0251 223e 1d3f 91be
00000340: 8006 5fbd 70e1 81bd 6616 90bd 6dd9 ab3e
00000350: b9c1 22be 4bd8 27bd 5caa 80bb 4e61 ecbc
00000360: 2f1c 0fbe 1afa 3a3e 21d6 42be c551 be3d
00000370: 68ed c13c 8c8e 833d 732f 19bd cf3b a8bc
00000380: 92e1 65bd a788 c43e 3d8e b5be 8909 e63c
00000390: e5e3 b7be f91b cf3b 37e1 fe3f c02b b0be
000003a0: 4ffa 243c 2f4b 783e 88aa 353c a3cf dc3d
000003b0: ee64 c5bd 3a62 ccbd 0718 b83b 8830 63be
000003c0: 1bf8 94be bcf7 57be c15d 053e 0d9d bf3d
000003d0: 5b30 2c3e 737d d33d 7b40 aebd 8251 783e
000003e0: e434 813e 30ff 63be 0182 273e e2ce e4bd
000003f0: 2095 2f3e c8aa a0bd 9a4b e8bd 7840 493e

fc1.bias f4 [196]
-0.46038198 0.038606454 -0.2898796 -0.08737954 -0.28072304 -0.32238275 -0.27663916 -0.30887997
-0.14299661 0.20161425 -0.037720583 -0.1254029 0.02406181 0.07858081 0.012749013 -0.02680456
-0.26989812 -0.11426894 -0.07412922 -0.16894566 -0.27298197 -0.5787718 -0.29439166 -0.18032177
-0.34150922 -0.2239314 -0.15814744 -0.22769643 -0.17665887 -0.26565638 -0.12119313 -0.07234214
-0.104472786 -0.5911312 0.01822239 -0.043191392 -0.256943 -0.10966343 -0.29908144 -0.09294491
-0.62505496 -0.263061 -0.2728813 -0.23056439 -0.015149006 -0.08480438 -0.08191184 -0.24605457
-0.23565237 -0.10647688 -0.28327146 -0.42472866 -0.039145462 -0.08350745 -0.01887003 -0.17724039
-0.46787602 0.09819617 -0.3780298 -0.47625545 -0.49981043 -0.3259179 -0.36392877 -0.3261118
-0.20307194 -0.3257719 -0.13211387 -0.36303574 0.1728579 -0.05942069 -0.30097315 -0.30071187
-0.30593562 -0.40541428 -0.40607244 -0.2008773 -0.11615319 -0.031111075 -0.10928876 -0.23560475
0.3541216 -0.28539568 -0.39967617 -0.27688777 -0.25426838 -0.38955802 -0.2959817 -0.33876202
-0.4091906 -0.23674177 -0.1111446 -0.33623067 -0.46829948 0.010811759 -0.064757414 -0.3745084
-0.40734285 -0.6631689 -0.38428998 0.08562474 -0.21465723 -0.015410095 -0.23725575 -0.38798562
-0.26326594 -0.016515234 -0.17131098 -0.120892815 -0.37936294 0.09007552 -0.25044444 -0.30461314
-0.30664775 -0.25179848 0.013510084 0.03587166 -0.5772877 -0.21627547 0.14974159 -0.11588936
-0.017804286 -0.29978585 -0.26787388 -0.23637202 -0.1104661 -0.26650804 0.014865408 -0.19815677
-0.5055348 -0.3686522 -0.10144088 -0.20718898 -0.3493052 0.007584246 -0.17696053 -0.4616582
-0.39641753 -0.22104369 -0.3076716 -0.33873823 -0.46237633 -0.10071856 -0.33873385 -0.005082914
-0.15525226 -0.32967925 -0.2958439 -0.21551076 -0.05336675 -0.09617131 -0.03912786 -0.43617663
-0.22348733 -0.032352246 -0.28392026 -0.29831073 0.0006373119 -0.5627442 -0.25220916 -0.16318877
-0.35408685 -0.14199701 -0.13464715 -0.38097644 -0.1567227 -0.17417796 -0.21132672 -0.03396162
-0.44562605 -0.32816002 -0.35792205 -0.19548002 -0.5653585 -0.2866409 -0.12183544 -0.25367182
-0.31682986 -0.14875355 -0.3349406 -0.05419293 -0.25765756 -0.28323683 -0.2611236 -0.22573368
-0.08495497 -0.32050335 -0.4005311 -0.52399063 -0.29730386 -0.16891442 -0.05849982 -0.23882958
-0.39029792 -0.010515259 -0.22259843 -0.42977643
00000000: 30b7 ebbe cd21 1e3d 196b 94be 0bf4 b2bd
00000010: eeba 8fbe 5a0f a5be a6a3 8dbe 8425 9ebe
00000020: b46d 12be f773 4e3e e680 1abd 9e69 00be
00000030: 461d c53c faee a03d 3ce1 503c 3d95 dbbc
00000040: 1630 8abe d605 eabd 0fd1 97bd 1700 2dbe
00000050: 4bc4 8bbe 642a 14bf 81ba 96be 45a6 38be
00000060: 4cda aebe 464e 65be 67f1 21be 4129 69be
00000070: 10e6 34be 1d04 88be 1b34 f8bd 1e28 94bd
00000080: d4f5 d5bd 6054 17bf 1f47 953c 75e9 30bd
00000090: 088e 83be 3897 e0bd 3421 99be e759 bebd
000000a0: 9a03 20bf eeaf 86be 19b7 8bbe 1219 6cbe
000000b0: 8933 78bc ebad adbd 65c1 a7bd bbf5 7bbe
000000c0: db4e 71be 8d10 dabd f508 91be 0976 d9be
000000d0: fe56 20bd f405 abbd 5295 9abc 817e 35be
000000e0: 728d efbe 131b c93d 1f8d c1be c1d7 f3be
000000f0: 27e7 ffbe b6de a6be df54 babe 20f8 a6be
00000100: 17f2 4fbe 93cb a6be dc48 07be d2df b9be
00000110: a901 313e 1c63 73bd 2719 9abe e8f6 99be
00000120: 98a3 9cbe 7692 cfbe bae8 cfbe c7b2 4dbe
00000130: b9e1 edbd a7dc febc c9d2 dfbd 5f42 71be
00000140: 6d4f b53e 621f 92be 5ba2 ccbe 3cc4 8dbe
00000150: 772f 82be 2674 c7be ea8a 97be 3772 adbe
00000160: 6e81 d1be 6f6c 72be c89f e3bd 6d26 acbe
00000170: f3c4 efbe ce23 313c 899f 84bd 91bf bfbe
00000180: 3e8f d0be 70c5 29bf a8c1 c4be 065c af3d
00000190: 1bcf 5bbe a07a 7cbc 2cf3 72be 0da6 c6be
000001a0: cbca 86be f54a 87bc 256c 2fbe a796 f7bd
000001b0: dc3b c2be 8479 b83d 413a 80be 41f6 9bbe
000001c0: ef00 9dbe bbeb 80be 6659 5d3c 29ee 123d
000001d0: 20c9 13bf 5177 5dbe dc55 193e 6757 edbd
000001e0: 4bda 91bc 887d 99be c426 89be 820b 72be
000001f0: 0d3c e2bd be73 88be 0a8e 733c 9ce9 4abe
00000200: bb6a 01bf fbbf bcbe 3cc0 cfbd 5929 54be
00000210: 22d8 b2be 4485 f83b 2435 35be 775e ecbe
00000220: 3df7 cabe 4759 62be 2287 9dbe 196f adbe
00000230: 97bc ecbe 8845 cebd 866e adbe 938e a6bb
00000240: 73fa 1ebe b8cb a8be da78 97be daae 5cbe
00000250: 1897 5abd 77f5 c4bd 8944 20bd 8b52 dfbe
00000260: ddd9 64be ca83 04bd ff5d 91be 2fbc 98be
00000270: 4711 273a 0110 10bf 8f21 81be f51a 27be
00000280: df4a b5be aa67 11be f1e0 09be 580f c3be
00000290: ea7b 20be b55b 32be 0866 58be 571b 0bbd
000002a0: 1929 e4be 9704 a8be 8f41 b7be ea2b 48be
000002b0: 56bb 10bf 99c2 92be dc84 f9bd 46e1 81be
000002c0: 8637 a2be da52 18be 567d abbe 68f9 5dbd
000002d0: b1eb 83be 6b04 91be feb1 85be bb26 67be
000002e0: dffc adbd 0419 a4be 6a12 cdbe 4024 06bf
000002f0: 3638 98be e7f7 2cbe 829d 6fbd be8f 74be
00000300: 21d5 c7be 3148 2cbc d8f0 63be a80b dcbe

fc2.weight f4 [196, 196]
-0.41990608 -0.20013201 -0.05495327 0.2698336 -0.13944176 0.14164738 0.01365604 -0.5363399
-0.044319298 -0.37064558 -0.015065901 -0.15687886 -0.21070911 0.023134856 0.5779345 -0.5431928
-0.38231608 -0.053933058 -0.07357363 -0.10428432 -0.3560646 -0.19982514 -0.049313422 0.015241824
-0.23279509 -0.11700904 -0.2167164 -0.24070492 0.19663344 -0.36956164 -0.23289116 -0.36215827
-0.41644096 -0.572548 -0.09565602 -0.2396809 -0.08075912 -0.38111976 -0.109726354 -0.37814566
-0.27996412 0.21496733 -0.33185467 0.21606305 0.07386197 -0.056179762 -6.452876e-05 0.1372426
-0.42303616 0.14167921 -0.5080703 -0.3051544 0.07453135 -0.48915502 -0.12637897 -0.43848
0.049055833 0.30381584 -0.13940622 0.34349132 -0.17673635 0.09309796 0.037641127 -0.38510603
-0.04688667 -0.6443817 -0.7291654 0.19945908 -0.055885326 0.19679713 0.3291146 -0.14939411
-0.16014057 0.5295519 0.4238811 -0.02120465 -0.5077239 -0.27235305 0.035753094 -0.18035331
0.064939305 -0.8833305 -0.3201176 0.43342817 -0.028901948 -0.6463442 -0.47062474 -0.10015379
0.04752997 0.04991751 -0.2410649 -0.2305026 0.042446963 -0.17313534 -0.013367247 -0.013736211
-0.47126764 -0.09992948 0.20667157 -0.27590105 -0.4632188 0.37544125 -0.116992936 -0.21434987
-0.20594011 -0.27628377 -0.4928027 -0.1584508 -0.15889616 0.02781626 -0.7410261 0.28018123
0.101726994 0.18057874 -0.2950994 0.08966057 -0.34106046 0.36759734 0.30706197 -0.9148409
-0.18165435 0.033057265 0.06725464 0.22609238 0.010934434 -0.2703132 -0.13916433 -0.64902
0.42001468 0.15813854 -0.5072293 -0.34833357 -0.32364246 -0.54553896 0.14003268 -0.2623554
-0.24720861 -0.62038094 -0.35976395 -0.427084 -0.0066987197 0.22199 0.5102714 0.03064
-0.9211925 0.050784286 -0.21599238 0.30652264 -0.34033903 -0.33592126 -0.45762137 -0.10164063
-0.34390527 -0.0007147945 -0.19046526 -0.3187112 -0.4019668 -0.011959502 0.110948905 -0.4326007
-0.2688985 0.14008641 0.022481646 -0.32994527 -0.16374329 -0.10863582 -0.7174243 -0.6132577
0.040492866 0.028077397 0.10026438 -0.06524496 0.0661091 0.014580182 -0.40323097 -0.09195211
0.09881336 0.10294139 -0.2760457 -0.24913599 0.14401172 -0.009978681 0.04934851 0.033905827
-0.7289706 -0.30809245 -0.55186087 0.45756462 -0.003914853 -0.17782412 0.17222188 -0.1929108
-0.040963374 0.1378895 0.35457322 -0.36686343 -0.080071814 0.19420014 0.3100906 -0.07933197
0.21440321 -0.27941874 -0.13695152 -0.43543142 -0.0042490917 -0.83978933 -0.40340322 0.23624435
0.20233294 -0.17425412 0.53324306 0.11797339 0.07132298 0.15312394 -0.095403984 -0.04719071
-0.27955014 -0.025499523 -0.26754853 -0.0014621232 -0.79620004 -0.44764012 0.032716073 -0.39733458
0.12348164 0.32641247 -0.16126278 -0.29205483 0.09626673 0.318587 0.18987858 0.1378818
-0.3397701 -0.3136525 0.1409234 -0.3785659 0.31073582 -0.044539746 -0.40493616 -0.5152657
-0.29530552 0.21930858 0.23242955 0.15580076 -0.031168146 -0.5274326 -0.23615181 -0.19312696
-0.2067486 -0.457393 0.031411387 0.23447134 -0.3002117 0.20774084 -0.13061391 -0.38498446
00000000: eefd d6be 68ef 4cbe ae16 61bd a127 8a3e
00000010: d2c9 0ebe 030c 113e 95bd 5f3c 924d 09bf
00000020: 2788 35bd 42c5 bdbe f8d6 76bc daa4 20be
00000030: 21c4 57be 4f85 bd3c 84f3 133f af0e 0bbf
00000040: efbe c3be e9e8 5cbd c5ad 96bd 0493 d5bd
00000050: 194e b6be f69e 4cbe dffc 49bd d8b8 793c
00000060: d661 6ebe 70a2 efbd e7ea 5dbe 5a7b 76be
00000070: 475a 493e 2f37 bdbe 057b 6ebe cf6c b9be
00000080: c037 d5be 8192 12bf 4ee7 c3bd e96e 75be
00000090: 0a65 a5bd 2122 c3be 36b8 e0bd 4f9c c1be
000000a0: 7557 8fbe 6520 5c3e dbe8 a9be a23f 5d3e
000000b0: f244 973d c01c 66bd 9d53 87b8 5389 0c3e
000000c0: 3298 d8be 5b14 113e e510 02bf 333d 9cbe
000000d0: e4a3 983d 8772 fabe 7d69 01be 7380 e0be
000000e0: c5ee 483d c08d 9b3e 81c0 0ebe 18de af3e
000000f0: 60fa 34be 25aa be3d 952d 1a3d 9e2c c5be
00000100: 3d0c 40bd 33f6 24bf 95aa 3abf 003f 4c3e
00000110: 03e8 64bd 3085 493e b581 a83e c5fa 18be
00000120: e4fb 23be b790 073f f206 d93e 60b5 adbc
00000130: 32fa 01bf dc71 8bbe d671 123d 8aae 38be
00000140: e6fe 843d f321 62bf 74e6 a3be 4cea dd3e
00000150: c7c3 ecbc d076 25bf baf5 f0be 6e1d cdbd
00000160: c9ae 423d 4e76 4c3d b8d9 76be e008 6cbe
00000170: dedc 2d3d 644a 31be 4c02 5bbc d80d 61bc
00000180: fe49 f1be d4a7 ccbd b6a1 533e e742 8dbe
00000190: 042b edbe d639 c03e fe99 efbd 887e 5bbe
000001a0: f7e1 52be 1175 8dbe a350 fcbe ed40 22be
000001b0: adb5 22be edde e33c e3b3 3dbf ea73 8f3e
000001c0: 3e56 d03d a2e9 383e 4517 97be f69f b73d
000001d0: 7a9f aebe b835 bc3e 3a37 9d3e 0333 6abf
000001e0: 9903 3abe 0e67 073d cdbc 893d c384 673e
000001f0: 5726 333c 7e66 8abe 1881 0ebe 2d26 26bf
00000200: 2a0c d73e 12ef 213e c8d9 01bf c758 b2be
00000210: 77b4 a5be 71a8 0bbf ba64 0f3e 7253 86be
00000220: 4124 7dbe 49d1 1ebf fb32 b8be c1aa dabe
00000230: ef80 dbbb 5951 633e 25a1 023f bd00 fb3c
00000240: 46d3 6bbf 2f03 503d 1b2d 5dbe 89f0 9c3e
00000250: eb40 aebe dffd abbe 594d eabe f628 d0bd
00000260: 5a14 b0be 0c61 3bba 5309 43be 1d2e a3be
00000270: 98ce cdbe c9f1 43bc 2e39 e33d d77d ddbe
00000280: 10ad 89be d072 0f3e 6e2b b83c 96ee a8be
00000290: 52ac 27be 757c debd 1ea9 37bf 75fe 1cbf
000002a0: d9db 253d 9202 e63c 6957 cd3d 269f 85bd
000002b0: 3564 873d b7e1 6e3c 4a74 cebe 6351 bcbd
000002c0: a95e ca3d efd2 d23d dd55 8dbe 811d 7fbe
000002d0: cf77 133e 9f7d 23bc aa21 4a3d d6e0 0a3d
000002e0: d19d 3abf 4bbe 9dbe c146 0dbf e945 ea3e
000002f0: 2b48 80bb 8717 36be ef5a 303e 698a 45be
00000300: 36c9 27bd e832 0d3e 9f8a b53e 86d5 bbbe
00000310: b1fc a3bd 67dc 463e 32c4 9e3e cd78 a2bd
00000320: 848c 5b3e f90f 8fbe 053d 0cbe def0 debe
00000330: f73b 8bbb 6ffc 56bf de8a cebe 0aea 713e
00000340: 5e30 4f3e ac6f 32be 9e82 083f 089c f13d
00000350: c811 923d 86cc 1c3e 2a63 c3bd 0c4b 41bd
00000360: 3221 8fbe 60e4 d0bc 1ffc 88be b7a4 bfba
00000370: c4d3 4bbf 1631 e5be 4a01 063d 706f cbbe
00000380: f1e3 fc3d 891f a73e 1222 25be 3688 95be
00000390: 7e27 c53d d61d a33e 886f 423e e330 0d3e
000003a0: 59f6 adbe 0f97 a0be 394e 103e 64d3 c1be
000003b0: c418 9f3e 4f6f 36bd cb53 cfbe 74e8 03bf
000003c0: 4932 97be 6e92 603e 0302 6e3e 3c8a 1f3e
000003d0: 5754 ffbc d305 07bf c8d1 71be 13c3 45be
000003e0: e8b5 53be 6a2f eabe 3aa9 003d 4119 703e
000003f0: 59b5 99be 04ba 543e a7bf 05be af1c c5be

fc2.bias f4 [196]
0.30066952 -0.11769223 -0.034904484 -0.088998415 -0.0644857 0.03577638 -0.21259932 -0.16727239
-0.06001617 -0.10354815 -0.08492771 -0.36367497 -0.09119236 -0.37657118 -0.3424919 0.24427323
-0.01521405 -0.0798212 -0.24926074 -0.006397059 -0.16769215 -0.1294532 -0.15961847 -0.17654477
-0.18232614 -0.079785086 -0.18871306 -0.111691944 -0.52181035 -0.119616024 -0.17867354 0.050711844
-0.18413597 -0.06239186 0.098411575 -0.2644737 -0.032165803 -0.22745115 -0.43952984 -0.21218993
-0.16616927 -0.2149844 -0.105879694 -0.051692553 -0.03232135 0.010414397 -0.44053707 0.03146935
-0.30321118 -0.02208967 -0.22311758 -0.2825833 -0.03616056 -0.0700047 -0.023498794 -0.6151338
-0.31474772 -0.22170082 -0.17190595 0.03744759 -0.010345958 0.01603494 -0.12873545 -0.23435745
-0.17579389 0.19299063 -0.14244212 -0.15837464 -0.15347657 -0.05456783 0.09125753 -0.07854689
0.20636463 -0.053030923 -0.08039061 -0.2672062 0.01390662 -0.12444999 -0.42025042 -0.04164368
-0.14932652 -0.044903982 0.0010609924 -0.010973323 -0.14575054 0.0046275416 -0.18850808 -0.24630374
-0.57766694 0.053352684 -0.09289605 -0.14925401 0.041689806 -0.08320993 -0.4621875 -0.33897403
-0.23427981 -0.08153943 0.03405182 0.048686724 -0.46562687 -0.26888105 0.059368577 -0.04858742
-0.15805529 -0.16205025 -0.025565423 0.13547753 0.058790173 -0.11802252 -0.07835497 -0.40393052
0.07932294 -0.33422032 0.14257662 -0.22256422 -0.09273334 -0.26836032 -0.100965746 -0.08853073
-0.42823374 -0.3898962 -0.18153442 -0.25683182 -0.054742716 -0.25555623 -0.19754994 -0.05025266
0.005739332 -0.2032597 -0.6106195 -0.26072863 -0.15305144 -0.14179876 0.088831656 -0.28323397
-0.16541478 -0.22983845 -0.18721811 -0.25667775 -0.32239953 -0.36682713 -0.085682265 -0.04196498
-0.20712645 -0.01479926 0.117146835 -0.095656596 -0.0742056 -0.19097833 -0.022476995 -0.19715787
0.1038839 -0.25353613 -0.38002628 -0.1564152 -0.17125927 0.10239026 -0.17672083 -0.0139344055
-0.017567594 0.11735737 -0.056818787 -0.19690363 -0.15681188 -0.10716105 -0.11907989 -0.4823981
-0.23385659 -0.25257593 0.09002616 -0.65689313 -0.24552245 -0.19831103 -0.2226358 -0.019093173
-0.02512581 -0.010911488 -0.48763275 -0.06478529 -0.16969493 -0.2994036 0.0034503506 0.015710814
0.059033584 -0.29298726 -0.43297574 -0.1067946 -0.058117274 -0.08484398 0.08398109 -0.39411455
-0.25575528 0.06468946 -0.4084697 -0.2465627
00000000: 5bf1 993e a008 f1bd 01f8 0ebd cd44 b6bd
00000010: 1411 84bd 418a 123d a3b3 59be 7449 2bbe
00000020: 84d3 75bd 0d11 d4bd 94ee adbd 9b33 babe
00000030: 0fc3 babd f0cd c0be 195b afbe c322 7a3e
00000040: 5a44 79bc 4c79 a3bd 353e 7fbe 6c9e d1bb
00000050: 7eb7 2bbe 618f 04be 0673 23be 27c8 34be
00000060: b4b3 3abe 5d66 a3bd ff3d 41be bfbe e4bd
00000070: 5d95 05bf 3ff9 f4bd 32f6 36be 39b7 4f3d
00000080: 248e 3cbe 9b8e 7fbd 028c c93d 1969 87be
00000090: 4ac0 03bd f4e8 68be 0e0a e1be 5148 59be
000000a0: 4728 2abe df24 5cbe 74d7 d8bd 92bb 53bd
000000b0: 6463 04bd 26a1 2a3c 138e e1be 01e6 003d
000000c0: 7f3e 9bbe 65f5 b4bc ef78 64be c2ae 90be
000000d0: 181d 14bd a05e 8fbd 8b80 c0bc 6979 1dbf
000000e0: 9d26 a1be 8a05 63be 1d08 30be a562 193d
000000f0: 1882 29bc b55b 833c 3ad3 03be 66fb 6fbe
00000100: 5003 34be 569f 453e 59dc 11be f62c 22be
00000110: f628 1dbe 8482 5fbd 3ae5 ba3d 31dd a0bd
00000120: 4051 533e f436 59bd d5a3 a4bd 40cf 88be
00000130: 98d8 633c a3df febd 102b d7be 9092 2abd
00000140: 0de9 18be 3ded 37bd ff10 8b3a 74c9 33bc
00000150: a13f 15be a2a2 973b 4308 41be 0c37 7cbe
00000160: fbe1 13bf 5888 5a3d 4940 bebd 0bd6 18be
00000170: eec2 2a3d f869 aabd d7a3 ecbe 018e adbe
00000180: 0ce7 6fbe 25fe a6bd ec79 0b3d bb6b 473d
00000190: a566 eebe c7aa 89be 772c 733d 9a03 47bd
000001a0: 3fd9 21be 80f0 25be 946e d1bc 9fba 0a3e
000001b0: f7cd 703d cab5 f1bd 9278 a0bd fbcf cebe
000001c0: 1174 a23d ed1e abbe 9bff 113e e0e7 63be
000001d0: faea bdbd 8666 89be 21c7 cebd 994f b5bd
000001e0: 7441 dbbe 7aa0 c7be 29e4 39be 767f 83be
000001f0: e639 60bd 44d8 82be 884a 4abe bcd5 4dbd
00000200: 0211 bc3b 5023 50be 8f51 1cbf 397e 85be
00000210: 84b9 1cbe b233 11be 5fed b53d 0b04 91be
00000220: 7e62 29be c55a 6bbe 1bb6 3fbe 446b 83be
00000230: 8d11 a5be c4d0 bbbe 2f7a afbd 79e3 2bbd
00000240: f518 54be 9878 72bc aeea ef3d 9be7 c3bd
00000250: 1bf9 97bd d38f 43be ad21 b8bc c1e3 49be
00000260: 15c1 d43d 7dcf 81be ce92 c2be 4e2b 20be
00000270: 975e 2fbe fcb1 d13d 4ef6 34be 224d 64bc
00000280: eae9 8fbc 1059 f03d d1ba 68bd 1ba1 49be
00000290: 4b93 20be 4177 dbbd 28e0 f3bd e2fc f6be
000002a0: 1a78 6fbe a251 81be a35f b83d 262a 28bf
000002b0: 3d6a 7bbe 0c12 4bbe a4fa 63be 4969 9cbc
000002c0: a5d4 cdbc 19c6 32bc 00ab f9be 26ae 84bd
000002d0: 82c4 2dbe 6e4b 99be 471f 623b f7b3 803c
000002e0: 33cd 713d 6d02 96be ffae ddbe 21b7 dabd
000002f0: 610c 6ebd aec2 adbd 47fe ab3d 62c9 c9be
00000300: 5bf2 82be e87b 843d f122 d1be ef7a 7cbe

fc3.weight f4 [4, 196]
0.37699127 -0.0012043994 -0.7859094 0.30461234 -0.12183967 -0.07990536 0.54696405 -0.02782442
-0.10446277 0.16141944 0.37521106 -0.20299229 -0.12703133 0.623567 0.009262305 -0.48220322
0.10312875 -0.10080783 -0.3990035 -0.013409621 0.02210772 -0.034406584 -0.13084024 -0.9024001
-0.47089735 0.33445227 -0.4418123 0.11284975 0.20640914 0.13767341 -0.08987104 0.45224285
-0.0775272 -0.041585367 -0.5442695 0.22663537 -0.07772182 -0.46260664 0.095628165 0.108240716
0.018440174 -1.0438237 -0.18002689 -0.22796033 0.09235213 0.47114676 0.148116 -0.12881672
0.24192981 -0.021761307 -1.055924 0.20498087 0.23463604 1.0420763 0.09777758 0.2065652
0.47453964 -0.46685576 -0.1178926 0.2104048 -0.40894282 -1.0159415 -0.14065745 0.56311977
0.26103148 1.0621989 -0.5934317 -0.07125602 0.3274776 0.55491877 -0.26657912 0.6616816
0.57643867 0.115100145 0.13073912 -0.038309887 -0.31429258 -0.24163282 -0.16350064 0.75292057
0.089034475 -0.53596526 -0.512736 -0.5241732 0.13210386 -0.07387251 -0.06648066 0.3662104
0.62214 0.326389 -0.27157742 -0.13783255 -0.70678234 0.282741 0.18359002 -0.3148743
0.6262628 0.95377725 0.0564421 -0.18152246 -0.12431421 -0.59307766 0.31036937 -0.07152224
-0.43270946 0.5830186 -0.018898053 -0.49823588 0.0826472 -1.5657239 -0.12276145 0.2527424
0.27049738 -0.19347934 -0.13103181 -0.036478955 -0.5655497 -0.2672194 -0.37992296 -0.41152012
-0.28553975 -0.39431965 -1.0355113 0.36425823 -0.56532496 0.18773618 0.08683455 -0.32195312
-0.8742853 0.7633008 0.13515349 0.39027724 -0.590945 0.12995069 1.3803811 0.37195966
-0.22919817 0.5767008 -0.3346138 -0.1818049 0.1304002 -0.19416142 -0.13953426 0.7594326
0.5024129 -0.40147823 0.7107487 0.20442167 -0.019087693 0.049685907 0.33222136 0.323424
-0.28386003 0.0075599095 0.4421307 0.9665044 -0.28078988 -0.4460516 -0.53830564 -0.4380164
-0.10381607 -0.03346609 1.0487809 -0.15165134 -0.29682297 -0.25435463 -0.18146771 -0.52854437
0.3638341 -0.28101516 -0.11001557 -0.5380496 0.7045446 0.47675708 0.24046248 -0.5272661
0.24715142 -0.3700052 -0.0433529 -0.15057 -0.22832486 0.9198382 0.053115927 -0.85120213
-0.9133402 0.28018773 0.082481794 0.43989265 -0.04044389 0.2080828 0.30103338 0.18172103
-0.7752083 0.42285454 -0.47270578 0.026333742 0.3615113 -0.8211498 0.49113882 0.17457598
0.43443984 1.0420054 -0.2728277 0.14405729 -0.08221408 0.35064298 0.4737001 -0.283261
-0.43087494 -0.32487833 1.1668813 0.3022029 0.2133722 0.12603752 -0.49017784 -0.13923956
0.03653694 -0.9401529 -0.8540454 0.6105202 -0.18260947 -0.16199523 -0.43842998 -0.73692995
0.7184873 -0.10979151 0.484796 0.048963543 -0.7297052 -0.13302743 -0.35048082 0.3818655
-0.124010146 0.044972084 0.013301711 -1.1597391 0.2989933 0.58374435 -0.94569325 -0.50111514
-0.24066934 0.5894157 -0.08440959 -0.9530202 0.37101856 0.7259909 -0.30116424 0.41723213
-0.40855855 -0.4060234 -0.26759526 0.6964181 -0.15743351 0.2582658 -0.60348237 -0.26318082
00000000: 0005 c13e f0dc 9dba 5c31 49bf 26f6 9b3e
00000010: 1487 f9bd 6ca5 a3bd d605 0c3f 0af0 e3bc
00000020: 94f0 d5bd 234b 253e aa1b c03e 36dd 4fbe
00000030: 8014 02be 16a2 1f3f ecc0 173c 57e3 f6be
00000040: 2b35 d33d 5674 cebd 304a ccbe 07b4 5bbc
00000050: 401b b53c ebed 0cbd fcfa 05be b103 67bf
00000060: 7519 f1be 543d ab3e 3935 e2be c51d e73d
00000070: eb5c 533e 42fa 0c3e 4f0e b8bd 608c e73e
00000080: 95c6 9ebd 6b55 2abd 3f55 0bbf 1a13 683e
00000090: 9e2c 9fbd c7da ecbe b3d8 c33d 4fad dd3d
000000a0: d90f 973c 049c 85bf f858 38be 6f6e 69be
000000b0: 1d23 bd3d 263a f13e b9ab 173e 88e8 03be
000000c0: 73bc 773e c544 b2bc 8528 87bf 81e6 513e
000000d0: 6e44 703e c262 853f 9d3f c83d d485 533e
000000e0: dcf6 f23e b807 efbe ad71 f1bd 5b74 573e
000000f0: f460 d1be 5f0a 82bf 8208 10be 9e28 103f
00000100: eba5 853e 22f6 873f 24eb 17bf adee 91bd
00000110: 25ab a73e 280f 0e3f 0f7d 88be f763 293f
00000120: 7c91 133f a0b9 eb3d 7ae0 053e d4ea 1cbd
00000130: f5ea a0be 986e 77be b66c 27be 67bf 403f
00000140: b557 b63d 0535 09bf ab42 03bf 3730 06bf
00000150: 3c46 073e 784a 97bd 0327 88bd ee7f bb3e
00000160: 9144 1f3f 761c a73e 320c 8bbe fa23 0dbe
00000170: b0ef 34bf 6ec3 903e 06ff 3b3e 3437 a1be
00000180: c252 203f bf2a 743f d52f 673d 06e1 39be
00000190: 7398 febd f0d3 17bf bce8 9e3e 417a 92bd
000001a0: 188c ddbe b540 153f 17d0 9abc c618 ffbe
000001b0: ef42 a93d a469 c8bf 5b6a fbbd 7467 813e
000001c0: a27e 8a3e 731f 46be 342d 06be f56a 15bd
000001d0: ddc7 10bf fbd0 88be 4385 c2be c4b2 d2be
000001e0: 4432 92be 44e4 c9be a28b 84bf 0e80 ba3e
000001f0: 23b9 10bf ea3d 403e 50d6 b13d 0ad7 a4be
00000200: 29d1 5fbf ae67 433f ad65 0a3e 6bd2 c73e
00000210: 2c48 17bf cb11 053e 54b0 b03f 7f71 be3e
00000220: edb2 6abe aaa2 133f 8052 abbe 102b 3abe
00000230: a187 053e 40d2 46be 12e2 0ebe 2d6a 423f
00000240: 229e 003f 8e8e cdbe a0f3 353f ea53 513e
00000250: cb5d 9cbc 7383 4b3d eb18 aa3e d597 a53e
00000260: 1a56 91be 1eb9 f73b f55e e23e d56c 773f
00000270: b1c3 8fbe e060 e4be 66ce 09bf b043 e0be
00000280: 859d d4bd bd13 09bd 743e 863f 7d4a 1bbe
00000290: 2ef9 97be c53a 82be acd2 39be af4e 07bf
000002a0: 7748 ba3e 38e1 8fbe d84f e1bd 9ebd 09bf
000002b0: 095d 343f 8119 f43e cc3b 763e e9fa 06bf
000002c0: 4315 7d3e 5271 bdbe cf92 31bd 062f 1abe
000002d0: fecd 69be 847a 6b3f 1690 593d 62e8 59bf
000002e0: aad0 69bf c474 8f3e 37ec a83d 9c39 e13e
000002f0: 7ea8 25bd a813 553e 0c21 9a3e 1415 3a3e
00000300: 0d74 46bf 6480 d83e 7e06 f2be dcb9 d73c
00000310: 0218 b93e e036 52bf 8c76 fb3e 0cc4 323e
00000320: e66e de3e 6f60 853f 13b0 8bbe c183 133e
00000330: db5f a8bd 7a87 b33e d288 f23e 9607 91be
00000340: a49b dcbe 7456 a6be 5e5c 953f 57ba 9a3e
00000350: 3e7e 5a3e fb0f 013e 97f8 fabe d194 0ebe
00000360: c2a7 153d dcad 70bf b8a2 5abf 0d4b 1c3f
00000370: fafd 3abe 14e2 25be e579 e0be 71a7 3cbf
00000380: c9ee 373f 5fda e0bd 2e37 f83e ff8d 483d
00000390: f6cd 3abf 5838 08be 3972 b3be e083 c33e
000003a0: 08f9 fdbd a634 383d 6bef 593c 5572 94bf
000003b0: a615 993e 4570 153f f418 72bf 1549 00bf
000003c0: 0672 76be f3e3 163f efde acbd 22f9 73bf
000003d0: 25f6 bd3e 8ada 393f 3332 9abe 739f d53e
000003e0: 962e d1be 4de2 cfbe 3f02 89be 7548 323f
000003f0: 4036 21be 6a3b 843e d27d 1abf a3bf 86be

fc3.bias f4 [4]
-0.1485766 0.075098544 -0.109291494 0.08389649
00000000: 7724 18be 44cd 993d 38d4 dfbd ecd1 ab3d
