model.pth (torch_old, 186103 bytes, 5 tensors)

fcs1.weight f4 [196, 33]
000000 b1 8e 8c be f8 36 00 3f 08 80 81 3d a8 ca 05 3e
       -0.27452615 0.50083876 0.06323248 0.13065588
000010 c6 2b d3 be c5 b1 3e be 43 ca ac 3e 73 4b 85 3c
       -0.41244334 -0.18622501 0.33748063 0.016271329
000020 49 34 88 3e 43 6e b3 3e 31 25 23 3d d7 5a f4 3d
       0.2660239 0.3504506 0.03983039 0.11931389
000030 d0 7d 4d 3d c3 33 c0 3a 84 b9 22 bd 50 ce e0 3d
       0.050168812 0.0014663864 -0.039727703 0.10976851
000040 3a 35 ac 3e a0 b5 a5 be 31 68 d7 be 7b 68 74 3e
       0.3363436 -0.3236513 -0.4207168 0.23867981
000050 a3 c8 d9 3b 7f 1a f2 bd 61 20 07 be 2d f5 48 be
       0.006646232 -0.1182146 -0.13195945 -0.19624777
000060 d1 9c 6f be 23 16 2d 3d a3 30 54 3d ab d0 e2 3e
       -0.23399664 0.04225744 0.051804196 0.44299826
000070 1b e8 94 bd 0c 50 08 bd 92 f5 c3 be 60 1d ee bc
       -0.07270833 -0.033279464 -0.38273293 -0.029066741
000080 71 0e d8 3f e6 d3 f7 3c 46 84 ef 3e da 8b e8 3e
       1.6879407 0.030252408 0.46780604 0.45419198
000090 c0 d1 9f 3c 79 41 de 3d 2e 06 2f bd 7a 89 b0 3d
       0.019509196 0.10852332 -0.042730503 0.086199716
0000a0 e1 31 83 3d 58 1a 22 3e 1b ac 1f be 7b 16 19 bd
       0.06405998 0.15830362 -0.15592997 -0.037374955
0000b0 e0 bc 1e 3c f2 ca f3 3c 12 ab ec bc 75 2e be be
       0.009688586 0.029759858 -0.028890166 -0.3714482
0000c0 87 77 31 bf a5 c3 3e 3d 69 1e 81 bc 92 49 78 bc
       -0.6932301 0.0465733 -0.015761571 -0.015154259
0000d0 25 fa 05 3d 65 18 62 bc 87 f4 35 3d 0a 87 c6 3c
       0.03270926 -0.013799761 0.044422653 0.024234314
0000e0 f1 4f dd bb 10 8c 38 bd b0 2c 2e be 74 e8 02 3e
       -0.0067539145 -0.04505545 -0.17009234 0.12783986
0000f0 6f 3f e0 3e 02 86 b5 3e 54 ab ec 3c c2 b2 d2 be
       0.43798396 0.35453802 0.02889029 -0.41152006
000100 70 a6 9a 3b 4d 4e 15 bf 1a 37 d3 3e 3f e6 1e 3e
       0.004719548 -0.583226 0.41252977 0.1551752
000110 d5 bb b3 be f9 0f 7a 3e 5b c4 b4 3c 9e 76 fa bc
       -0.35104242 0.24420156 0.022066286 -0.03057414
000120 c9 80 b4 be c1 ca 6c 3e 97 46 09 bf f7 d6 bf be
       -0.35254505 0.2312422 -0.53623337 -0.37468693
000130 44 f7 ad 3d 8f 6e ad 3d 94 cb 76 bd 40 57 77 be
       0.08494428 0.08468353 -0.06025274 -0.24154377
000140 1a ef 7c be ee b8 b9 3b a7 32 25 bd 63 40 de bd
       -0.24700585 0.0056677973 -0.04033151 -0.108521245
000150 36 af 27 3e de ba 4f bc 4d 93 1e bd c2 86 30 bd
       0.16375431 -0.01267883 -0.038714696 -0.043097265
000160 a6 99 5a bc 0d 9c c0 3c d4 d2 bd bd 96 c1 d4 bd
       -0.013342297 0.02351191 -0.09268728 -0.10388486
000170 8b 3c 9b 3d 36 91 e2 3e e5 8c 87 3d 48 db 08 3c
       0.07579907 0.44251412 0.066186704 0.008353062
000180 45 95 02 bf 64 59 5a bc 55 1b 32 3f 96 b5 e5 be
       -0.5100902 -0.013326976 0.69572955 -0.44865102
000190 7c 10 98 3e b9 19 e3 bd c7 f1 ab be 33 5b a3 be
       0.29700077 -0.110888906 -0.335829 -0.31905517
0001a0 09 8f 36 3e 46 eb 4c 3f 92 17 2e 3c f2 08 74 be
       0.17828001 0.800465 0.010625737 -0.23831537
0001b0 d0 a3 03 bd af 52 2a be 36 58 0a 3e 4b 0d 19 3e
       -0.032138646 -0.16633104 0.13510212 0.14946477
0001c0 2d f3 7b 3d 48 43 96 3e e2 d6 79 3c 12 e2 6d be
       0.061511207 0.29348207 0.015248986 -0.2323077
0001d0 a1 f4 d3 3d 7f 90 99 be 0e 69 ca bd c9 52 73 bd
       0.10349394 -0.29993054 -0.09883319 -0.059405122
0001e0 2c 9b 45 3d ec 1f 59 bd e9 d2 30 be 74 64 22 3e
       0.048243687 -0.05300896 -0.17267956 0.15858632
0001f0 ab d5 ce bd a6 ca 8b bd 65 09 f2 3e 5f f3 50 3e
       -0.10099348 -0.068257615 0.47272792 0.20405339
000200 a0 3a a4 bc b7 20 e5 be ec c9 59 3d a3 27 39 3e
       -0.020047486 -0.44751522 0.053171083 0.18081526
000210 ab 54 1d ba af 56 11 3e b5 6e 0e bc 9d 02 42 be
       -0.0006001691 0.14193223 -0.008693387 -0.1894631
000220 21 64 a0 be 6f cf 55 be be 3b 74 be be 78 0d be
       -0.31326392 -0.20879911 -0.23850915 -0.1381559
000230 66 16 56 3e 17 db 81 be d0 33 79 be 54 a3 6a 3c
       0.20906982 -0.25362465 -0.24336171 0.014321167
000240 7c 25 e7 bc 64 dc aa be 39 d4 18 3e 59 36 cd 3d
       -0.028216116 -0.3337127 0.14924707 0.100201316
000250 c2 b6 35 bc 08 18 03 be d8 fd 75 bd 8a 7c 11 3e
       -0.011090936 -0.12802136 -0.060056537 0.14207664
000260 bb 88 b5 3d 6b 61 41 bd 68 54 e0 3d 1b 8a c2 be
       0.0886397 -0.047212046 0.10953599 -0.3799599
000270 e7 e5 0c bd 29 84 44 bd e6 7d 7d 3e 87 46 14 3f
       -0.03439894 -0.0479776 0.24755058 0.57920116
000280 c7 17 85 bd 9e 7c 74 3d 5f ff 14 bf c0 35 52 3d
       -0.06498676 0.059689157 -0.58202165 0.05132079
000290 14 5a 0e be 89 90 95 3e f5 4c ec 3e b5 a5 76 3e
       -0.1390155 0.29211834 0.46152464 0.2408665
0002a0 67 5c 2d be e2 92 29 be 37 8d 89 be 92 c2 cc bd
       -0.1692978 -0.16559938 -0.2686555 -0.09998049
0002b0 d4 75 b8 3c a4 09 37 3d 68 6d 6c be 56 7d 96 3d
       0.022517122 0.04468693 -0.2308861 0.07348125
0002c0 44 53 f7 3d 0e 63 ea 3d 95 e5 f3 bd 9a ba 92 bd
       0.120764285 0.114446744 -0.11909024 -0.07164498
0002d0 a9 c2 76 be ba 90 57 3d ce 57 48 bd c8 36 01 bd
       -0.24097694 0.052628256 -0.048911862 -0.031546384
0002e0 44 14 06 bc 11 c2 af 3d 8d 56 7e bd 6f 7b 95 bd
       -0.008183543 0.08581937 -0.06209426 -0.07298934
0002f0 77 50 90 bb f8 86 28 3d 35 2f 01 3e 09 27 10 bc
       -0.0044041234 0.04114434 0.12615664 -0.008798369
000300 4d 4b 1e 3f f3 3f 0a 3c d0 12 af 3b b5 07 21 bf
       0.6183365 0.008438098 0.005342819 -0.62902385
000310 a0 fb da 3c a0 e3 0e 3f 8d 29 af 3e 14 3a 9c 3e
       0.026731312 0.5581608 0.34211388 0.3051306
000320 5f fc 10 3e 16 ad a2 3d bb 78 9a bd 3f 28 0b be
       0.14158772 0.0794317 -0.07542559 -0.13589571
000330 dc 1c 50 be 23 8d a0 3e eb cc 7e bf 61 87 10 3f
       -0.20323509 0.3135768 -0.9953143 0.5645657
000340 4e a9 cd bd 3d 74 59 3d 0d 98 39 3e e6 e2 91 3d
       -0.10042058 0.05308937 0.18124409 0.071233556
000350 e4 f6 89 3e 79 e4 29 bd 5e 4a 98 bd 9d 48 bd 3d
       0.26946175 -0.041477654 -0.074360594 0.092423655
000360 60 d1 29 be c7 10 be bd d3 e6 0a 3e 3d 8d ba bb
       -0.16583776 -0.09280544 0.13564615 -0.0056931064
000370 63 21 09 be ae f2 51 3d 0c 37 37 3d ea de 0c be
       -0.13391642 0.051256828 0.04473023 -0.1375691
000380 59 fa 12 be a6 58 3d 3f c0 aa 18 be 3c 55 38 3d
       -0.14353313 0.7396339 -0.14908886 0.04500316
000390 88 e3 3e bf 0e df 2f bd 20 ae 31 3e 82 d9 54 3e
       -0.74565935 -0.04293733 0.1735158 0.20786098
0003a0 12 7c e8 3e b5 02 a3 bd 1f ef 45 be f6 f8 85 be
       0.45407158 -0.07959501 -0.19329499 -0.26166505
0003b0 69 86 43 3f f8 c9 ac 3d 37 17 e1 bc 4f 92 0c 3f
       0.7637697 0.0843696 -0.02747689 0.5491075
0003c0 59 02 37 3e d5 64 f3 3d ab ac 0f 3b 0f 1a 1f be
       0.1787199 0.118844666 0.0021922986 -0.15537284
0003d0 03 70 7a bd dc 7e aa 3e cc b7 4e 3d eb 1c b6 be
       -0.06114198 0.3329991 0.05046825 -0.35568938
0003e0 26 9b cb 3d 64 bf 6d bd 41 53 9c 3e 59 28 10 3e
       0.099417016 -0.058043852 0.30532268 0.14077891
0003f0 ea 5a 5a 3e 99 d0 8a bd 87 b7 1b 3e a2 59 6a 3d
       0.21323743 -0.06778068 0.15206729 0.057214387

fcs1.bias f4 [196]
000000 fb 46 11 bf 05 a5 a8 be ba 54 0d bf d2 e3 19 bf
       -0.5674893 -0.329384 -0.5520741 -0.6011325
000010 b5 11 fb be 54 36 38 bf da 3e 1d bf 91 23 cf be
       -0.49036947 -0.719579 -0.6142403 -0.40456823
000020 9d 1e 12 bf 53 a2 07 bf fb 2d 01 bf c5 8a 80 be
       -0.5707796 -0.5298206 -0.50460786 -0.25105873
000030 79 6c 12 bf 00 ed d4 be fe fc a9 be 1a b4 3f 3c
       -0.57196766 -0.41587067 -0.3320083 0.011700654
000040 85 8a ee be 4d e8 ef be 0f 01 fd 3d 28 23 96 be
       -0.46590057 -0.4685692 0.123537175 -0.29323697
000050 ff e7 58 be ce f3 d4 be 85 14 9b be ee 39 ca be
       -0.2118225 -0.41592258 -0.30289093 -0.39497322
000060 2c 12 e2 be 11 6d 22 bf c3 72 ef be c1 7e 28 bf
       -0.4415449 -0.6344767 -0.46767244 -0.6581841
000070 c6 f7 b2 be 98 3f 1d bf 67 34 96 be 60 95 b5 be
       -0.3495466 -0.6142516 -0.29336855 -0.35465527
000080 e6 f4 03 bf 1e e0 25 bf c3 2e be be 04 29 85 bf
       -0.5154556 -0.647951 -0.3714505 -1.0403142
000090 54 4c d4 be 3d 42 fd bc 71 e8 3a bf dc 1c f1 be
       -0.41464484 -0.030915374 -0.7301093 -0.4709233
0000a0 e3 a1 65 bf 17 cd d8 be e1 e3 8a 3d 70 d5 39 bf
       -0.89700145 -0.4234397 0.06781746 -0.72591305
0000b0 15 34 b4 be 99 2e 16 bf e1 e4 ba be c0 97 c0 bd
       -0.35195985 -0.5866485 -0.36502746 -0.09403944
0000c0 71 1e 91 bd 06 95 30 be eb 0a b3 be b9 86 e7 bd
       -0.07085884 -0.17244348 -0.34969267 -0.11304993
0000d0 8d 2f e9 be 2e 2f c2 be a6 d1 6a be 52 42 aa be
       -0.4554409 -0.3792662 -0.22931537 -0.33253723
0000e0 89 0f 67 be 88 fb 04 be 3b b0 46 bf d1 1d c7 be
       -0.2256452 -0.12986577 -0.77612656 -0.38889936
0000f0 70 23 d6 3d c5 87 fb 3c c6 52 24 bf ea 4e 12 bf
       0.10455978 0.030704388 -0.641888 -0.57151663
000100 d8 df 13 bf 30 1f bf bc 25 46 0c bf 7f 0e 1c bf
       -0.57763433 -0.023330301 -0.5479453 -0.6095962
000110 9a 07 84 be 56 1f 43 bf 3d 89 c5 bd e8 48 ea be
       -0.2578705 -0.7621969 -0.09645317 -0.45758748
000120 a8 db c0 be 55 c8 17 bf 58 13 d2 be 25 24 49 bd
       -0.37667584 -0.5929006 -0.41030383 -0.049106736
000130 bf 5b 00 bf dc 66 64 be 95 73 17 bf 8f 8d ee bc
       -0.50139993 -0.22304863 -0.5916074 -0.029120235
000140 ad 75 11 be 4d aa b0 be a1 d7 86 bf bb 24 fa be
       -0.14205046 -0.3450493 -1.0534555 -0.48856148
000150 72 73 04 bf 99 c0 e1 be e6 cc 2e be 0f 43 04 bf
       -0.51738656 -0.44092253 -0.1707035 -0.51664823
000160 7f d0 ef be 4e a1 f7 be cc 49 ef be 7e 37 17 bf
       -0.46838757 -0.48365253 -0.4673599 -0.5906905
000170 3a de 04 bf d6 77 00 bf 49 83 5c 3d e5 52 1d bf
       -0.5190159 -0.50182855 0.05383614 -0.6145461
000180 e2 b2 08 bf ea 39 dc be 33 dc 2d bf a9 bb 01 be
       -0.53397954 -0.43012935 -0.6791412 -0.12669243
000190 33 2e 15 bf 8e 5e ab be 89 14 bc be be 91 3d bf
       -0.5827362 -0.33470577 -0.36734417 -0.7405051
0001a0 96 c4 4c be f8 bf 2a be 54 91 0d bf 4a 12 1e bf
       -0.19996867 -0.16674793 -0.5529988 -0.61746657
0001b0 0e 90 2f bf 4a 4c 1a bf 57 f8 c8 be 53 2b 05 bf
       -0.68579185 -0.6027266 -0.39251968 -0.5201923
0001c0 a1 fa 0d bf 29 97 56 bf a2 45 cb 3d 6c 1a 22 be
       -0.55460554 -0.838244 0.09925391 -0.15830392
0001d0 69 31 f9 be 7f cf 04 bf 6e 0a 44 be fd bb aa be
       -0.4867051 -0.51879114 -0.19144604 -0.3334655
0001e0 ac 00 cf be 55 dc 18 bf f1 7e 55 bf 73 28 34 bf
       -0.404302 -0.597112 -0.8339682 -0.7037422
0001f0 31 a5 94 3e 5b 13 b5 be 9a d4 00 bf 87 b2 10 bf
       0.2903228 -0.3536633 -0.50324404 -0.5652241
000200 3e c7 16 bf 3f c6 11 bf b4 32 3e bf 2f e8 e7 be
       -0.5889777 -0.56943125 -0.74296117 -0.4529433
000210 1a cb a5 3e 0f 8e 32 bf cf 23 07 bf 3f 79 ad be
       0.32381517 -0.69748014 -0.52789015 -0.33881566
000220 6a 40 68 be 62 27 26 bf c4 8e 3e be c3 be b5 be
       -0.22680822 -0.64903843 -0.18609148 -0.35497102
000230 1c 7f 30 bf 79 cb 2f bf 50 e7 0b bf 07 87 a1 bd
       -0.68943954 -0.6866985 -0.5464983 -0.078870825
000240 c6 b9 e2 bd a5 39 6c be b0 c0 dd bc 5d c3 dd be
       -0.1107059 -0.23068865 -0.02706942 -0.43313113
000250 63 67 fe 3c cd 45 b7 bd 3d 96 1a bf 96 51 da be
       0.031055158 -0.0894886 -0.60385495 -0.4264037
000260 51 18 18 bf ce 4a 09 bf 6b 1a a5 be 78 19 0f be
       -0.59412104 -0.5362977 -0.32246718 -0.1397456
000270 f7 f0 54 be a0 fb 81 be 96 92 d8 be 32 2c 36 bf
       -0.20795046 -0.25387287 -0.42299336 -0.71161187
000280 fa 29 0e bf b7 b6 9c be 31 f5 b9 be f3 d7 f1 bc
       -0.555328 -0.3060815 -0.3631988 -0.029521918
000290 93 94 e1 be 5e db 33 bf d0 bc 60 be 1b 17 6d be
       -0.44058666 -0.702566 -0.21947026 -0.23153345
0002a0 7e 1d 17 be d1 60 1a bf 50 20 05 be 7c 36 0c bf
       -0.14757344 -0.6030398 -0.13000607 -0.54770637
0002b0 de 53 f3 be 52 f7 b0 be ff e8 0f bf 9e 8a ca be
       -0.47524923 -0.3456369 -0.562149 -0.39558882
0002c0 92 b9 c9 bd 05 b9 0b bf ed d0 48 3e 1c 9a 17 be
       -0.09849848 -0.5457919 0.19610949 -0.14804882
0002d0 a1 b6 15 bf 97 20 9b be ac 0f e1 be 2b 7a 10 bf
       -0.58481795 -0.30298302 -0.4395727 -0.56436414
0002e0 26 b2 76 be 09 31 1c be 26 c1 ba be dc 63 2b bf
       -0.24091396 -0.1525308 -0.36475486 -0.6694925
0002f0 e9 fa 6b be 30 68 3d bf cf 2e 8a be 24 0d 0e bf
       -0.23044933 -0.739871 -0.26988837 -0.554888
000300 68 0e da be 1b ba 81 be 1e dd 2b bf 4d e2 fd be
       -0.42589116 -0.253373 -0.67134273 -0.49586716

fc2.weight f4 [196, 200]
000000 38 cd 9d 3e 0d 5d 96 be a5 5e 12 3e 21 e5 34 bd
       0.30820632 -0.29367867 0.14293917 -0.044163827
000010 55 f9 19 3e 3f 6a f8 3a 7b 9f 82 3e 27 25 02 bd
       0.15036519 0.0018952562 0.255123 -0.031773712
000020 17 e3 2a 3e 5b ff 41 3d cc 3e 2f 3d 1f 00 08 3e
       0.1668819 0.047362667 0.042784497 0.13281296
000030 38 d2 40 bd 55 2e d6 3c 74 79 1a be 0c 2d 97 be
       -0.04707548 0.02614514 -0.15085393 -0.29526556
000040 37 17 95 bd f3 1c 1d 3e de 32 3a be a6 c9 4b be
       -0.072798185 0.15343075 -0.18183467 -0.19901142
000050 68 bc e8 be e2 44 33 3e bb 45 54 3c 22 0b 15 3c
       -0.45456243 0.17506745 0.012956078 0.009096893
000060 f9 92 72 be 84 7b e1 3d 92 03 36 3d bc 3d 36 3e
       -0.23688878 0.11009887 0.044437 0.17796987
000070 62 71 70 be d9 a8 0b 3e c5 b2 60 be 55 39 e0 3c
       -0.23480752 0.13638629 -0.21943195 0.027371088
000080 f1 4f 90 3e bf 6e 94 be d9 b9 a5 be ca 9a 5e bd
       0.2818599 -0.28990743 -0.32368353 -0.054346837
000090 19 a2 55 3e cf 4b 06 be ca a7 fc 3e f4 f5 70 3e
       0.20862617 -0.13114856 0.49346763 0.23531324
0000a0 3f cd 22 3e bf 27 91 bd a6 39 4b be c2 79 f8 bc
       0.15898608 -0.07087659 -0.1984621 -0.030331496
0000b0 a7 4a 4d bd b4 8e 7f bd fe ac 6f 3d c3 78 41 3e
       -0.050120022 -0.06239195 0.058514588 0.18893723
0000c0 b0 4a 12 3c c3 2b 05 bf 26 b3 e0 3d 1f 79 8b 3e
       0.00892894 -0.520199 0.1097167 0.27240846
0000d0 c2 86 a0 3e 31 b8 3f be 37 fd c8 be 15 76 12 bd
       0.31352812 -0.18722607 -0.39255688 -0.035757143
0000e0 ab 2e 41 bd 2c 3e f8 bd f1 5c b5 3e da fc a8 bd
       -0.047163647 -0.12121233 0.3542247 -0.082513526
0000f0 32 8b 05 be ef 78 c4 be 0b bb 07 3e e4 a2 31 3e
       -0.1304138 -0.38373515 0.13254945 0.17347294
000100 71 35 35 be 64 6f 1c be a7 51 84 3d 3d 9d 5c 3b
       -0.17696168 -0.15276867 0.064608864 0.0033663057
000110 34 7d e6 3c 94 e7 84 be 6f 07 e4 be 60 5e 82 3d
       0.028135873 -0.2595793 -0.4453692 0.06365657
000120 66 f2 a9 3d 47 ae 16 be 6c 19 d6 bd 8d 18 1e bf
       0.08298187 -0.14714919 -0.104540676 -0.6175621
000130 9a 0f 16 be 60 82 06 bd c1 cb 0a 3c 02 bb b4 be
       -0.14654389 -0.03283918 0.00847143 -0.35298926
000140 d2 82 af bc 7e 96 16 be c5 37 1c be fe 85 f6 bd
       -0.021424685 -0.14705846 -0.1525565 -0.12037276
000150 a5 17 cd 3d 0c d2 c6 3d eb 87 69 bd 6d dd 4c 3e
       0.100142755 0.09708032 -0.057014387 0.20006342
000160 f2 d0 66 bc c2 68 83 bc 3e 27 0b be 0d 41 19 3e
       -0.014087902 -0.016041163 -0.13589188 0.14966221
000170 b3 ce b2 bd 57 8c 30 3d 5d ac 13 3e 0c 58 a8 be
       -0.08730831 0.04310259 0.1442122 -0.32879674
000180 e2 38 46 3e 40 9b 3a bd 49 1d 63 be fe b4 50 3d
       0.19357637 -0.045558214 -0.2217914 0.050953858
000190 26 d6 88 3e 8b 57 38 3c b0 39 d8 bd 03 c5 83 be
       0.26725882 0.011251341 -0.10557878 -0.25736246
0001a0 e2 af aa 3d c3 7f eb 3c 5b 78 00 bd 6e 6f d6 bd
       0.08334328 0.028747445 -0.03136478 -0.10470472
0001b0 b6 64 a1 3e cc 2b 8a bd cf d5 2a bd 84 05 bf 3d
       0.3152215 -0.06746635 -0.04170781 0.09327224
0001c0 5f 8f 3e be 8c a7 83 bd ac 98 ab be dd 81 29 bd
       -0.18609379 -0.064284414 -0.33514917 -0.041383613
0001d0 09 f1 a0 be 86 4b a1 be e1 1c 03 3e ba e8 56 be
       -0.31433895 -0.31502932 0.12803985 -0.20987216
0001e0 a2 20 30 3d 15 79 3c be 89 0f 7d bd 4a 13 c5 3c
       0.04299987 -0.18405564 -0.061782394 0.02405705
0001f0 d6 85 9a be ef 37 84 bb dc 9c 2c 3d 03 71 65 3e
       -0.30180234 -0.004034988 0.04214178 0.22406392
000200 d1 3d eb bd 30 a1 09 bd 93 8d 51 3e 76 0d 08 bf
       -0.114864 -0.033600986 0.20464163 -0.5314554
000210 6c 8c 58 be cb 86 fe 3d a4 ea fc be 00 ce eb 3d
       -0.21147317 0.124280535 -0.49397767 0.11513901
000220 46 1b e6 be 14 ae df bc 58 5f 87 3e d9 59 fe 3b
       -0.44942683 -0.027304687 0.2643993 0.0077621755
000230 cb 18 17 be e3 91 68 3c ad 2d 06 be ce c5 41 39
       -0.14755552 0.014194938 -0.13103361 0.00018479602
000240 b4 11 89 3d 14 02 b0 3a e7 cb 5e bd 1f ea bb 3d
       0.0669283 0.0013428354 -0.054393675 0.091755144
000250 19 c5 88 be ed 17 70 3d 58 d6 b7 bd 56 ae 39 be
       -0.26712874 0.058616567 -0.0897643 -0.1813291
000260 e1 2a cd bc 39 86 1d 3c 2b b4 fb be 5d 45 3c be
       -0.02504486 0.009614521 -0.49160895 -0.18385835
000270 17 56 6c be 6d 8e 60 be 2c 2b a1 be c3 21 c6 3d
       -0.23079716 -0.21929331 -0.3147825 0.09674408
000280 33 8e 1d be 0a 5a 23 bd a3 f0 a7 be 30 20 4b bd
       -0.15386276 -0.03988079 -0.3280078 -0.049591243
000290 81 67 3e be 78 cd 89 3e ef b2 1a bf aa b1 f1 bd
       -0.18594171 0.26914573 -0.6042928 -0.11801465
0002a0 43 7c 2d 3c 7e 51 bf 3c 9e 4b f0 bc 79 55 a2 be
       0.010588708 0.023354288 -0.029332932 -0.31705835
0002b0 30 12 5d be 99 35 a9 3d a1 4d c8 be b8 b9 cd 3d
       -0.21588969 0.08262176 -0.39121726 0.10045189
0002c0 15 6f 3e be 8a da 99 bd 4d 36 1c bd f2 70 98 bd
       -0.18597062 -0.07512386 -0.038137723 -0.074434176
0002d0 84 ed b2 bd 52 ff 7f be b7 98 3b be 70 0e ff 3d
       -0.08736709 -0.2499974 -0.18319975 0.124539256
0002e0 c6 d5 85 be 92 18 07 be fa df 2b be 3e b4 66 3e
       -0.2613966 -0.13192967 -0.16784659 0.22529694
0002f0 51 0e 4b be 54 36 0f 3e 98 45 05 be 5d c1 e2 bd
       -0.1982968 0.13985568 -0.13014829 -0.11072037
000300 94 41 42 3e 20 4d da 3c 66 d3 07 be d2 3b f8 bd
       0.18970329 0.026648104 -0.13264236 -0.12120785
000310 46 58 e5 3d fe ec d3 bc 16 25 f8 3c 74 86 75 3d
       0.111984774 -0.025869843 0.030291121 0.059942678
000320 81 e0 9a 3e e8 91 8d 3e db ca d7 be f6 5c 38 be
       0.30249408 0.2765038 -0.42146954 -0.18004212
000330 b9 a0 42 3d 5d e8 f4 bb b4 b7 63 3e 87 a6 96 3e
       0.04751656 -0.007473989 0.22238046 0.29423925
000340 63 74 a5 3d b5 ef f7 bd eb 26 5a bd fd 5f bb 3e
       0.0807884 -0.12106267 -0.05325977 0.3659667
000350 aa b8 12 bf 65 95 e9 3c 49 df 00 3e 21 c6 f0 3d
       -0.57313025 0.02851362 0.12585177 0.1175654
000360 8a ce 3c 3e 97 77 52 be 5d 1b 9c 3d e1 5c a3 be
       0.18438163 -0.20553432 0.07622407 -0.31906798
000370 22 60 49 3d 3f 70 80 3e 0e ca b4 bd d2 db 1c 3e
       0.049163945 0.25085637 -0.088276014 0.1531823
000380 ea cf 92 be 33 ef c4 bd 9b 5c 34 3e 82 61 8b 3e
       -0.2867425 -0.09615936 0.17613451 0.2722283
000390 94 57 3d 3d 74 e3 1e 3e ad 21 5e 3e 60 0d 4d 3e
       0.0462261 0.15516454 0.21692534 0.20024633
0003a0 c2 19 49 be c7 fa 1d be 3c c3 a7 bd 85 ec 2e 3e
       -0.19638732 -0.15427695 -0.08191535 0.17082413
0003b0 e5 fd a7 bd 1c 73 6a 3e f4 d4 a7 3d 51 db 19 3e
       -0.082027234 0.22895473 0.081949145 0.15025069
0003c0 f4 63 09 3e cd 47 17 be 9e b4 8e 3d 01 7c 43 be
       0.13417035 -0.14773484 0.06968044 -0.19090272
0003d0 f1 7d 81 bd 13 3f 0a bc 1b 30 f0 be 8b e6 86 3e
       -0.063228495 -0.00843789 -0.46911702 0.26347765
0003e0 b0 83 72 3e d3 60 2f be 02 50 75 bf f2 b0 10 be
       0.23683047 -0.1712678 -0.9582521 -0.1413
0003f0 f1 88 4e be 42 14 03 b9 b5 b7 6c bd 6d bb 29 3e
       -0.20169427 -0.0001250068 -0.057792384 0.16575404

fc2.bias f4 [196]
000000 b9 1d 0a bf 8c 8e e5 3e 4e 45 c6 3e 25 bf 34 bd
       -0.53951603 0.44835317 0.3872475 -0.044127602
000010 3b 94 0e 3e 47 5d 01 bf 43 73 2d 3e b2 b0 44 3e
       0.13923733 -0.50532955 0.169385 0.19208029
000020 e9 4a 86 be 5d 3d 4f bf 7f 2c 0e bf dc 88 76 be
       -0.26229027 -0.8095301 -0.55536646 -0.24075645
000030 93 64 32 3e 02 a2 70 3e a3 ac e1 be 13 40 cb be
       0.17421179 0.23499301 -0.44077024 -0.39697322
000040 7a 1d 91 3e cf e4 a3 be 09 50 20 3e c0 c6 f9 3e
       0.283428 -0.32010505 0.15655531 0.48784447
000050 ee 49 87 be a3 08 2d bd 60 c8 f1 b9 03 37 69 3e
       -0.2642359 -0.042244565 -0.00046116393 0.22774892
000060 64 16 36 bf 55 7a 28 3f 88 8c a2 3c d5 3c 15 3f
       -0.71127915 0.65811664 0.019842401 0.5829595
000070 a5 c4 bb bd f8 ab d2 be 10 1f 8a 3d d7 94 0a be
       -0.09168366 -0.41146827 0.06744206 -0.1353334
000080 ff a0 da be 60 4c af be f5 ca 30 be 9c ee a5 be
       -0.42700955 -0.34237957 -0.17264922 -0.32408607
000090 e5 dd f8 3e e0 ea c8 be 78 4e 1a bd 3e de ba be
       0.48606792 -0.39241695 -0.03767249 -0.36497682
0000a0 2c 99 8d bd ea 2f 03 bf 8a 01 8c 3e dd 45 4c bd
       -0.06913981 -0.51244986 0.27344924 -0.049871314
0000b0 54 e0 ef be 4d 4e c3 3e f8 b4 c9 be e1 32 07 3f
       -0.46850836 0.38145676 -0.3939588 0.5281201
0000c0 45 91 6f 3e d7 7e c7 3d 88 54 df be c8 6e 37 bd
       0.2339526 0.0974099 -0.4361918 -0.044783384
0000d0 79 b0 8a 3e 64 cc eb be 7b f3 87 be 6b ad af be
       0.27087763 -0.46054375 -0.26552948 -0.34311995
0000e0 a3 e5 61 be 7f 7a e4 be 2c 07 82 3f 8f d4 3a be
       -0.22060256 -0.44624707 1.0158439 -0.18245147
0000f0 58 6f ab 3e d3 6d 7f 3e 7f 9d 0c 3f a7 dd b7 bd
       0.33483386 0.24944238 0.5492782 -0.08977824
000100 7b 3c fa bd 20 a6 e0 be ae 10 9b bd 5c 63 f6 3e
       -0.12218567 -0.43876743 -0.07571541 0.4812268
000110 03 5a cd bd 7a fa 68 be bd 9b fd 3e 1b 99 e1 bc
       -0.10026934 -0.22751799 0.4953288 -0.027538827
000120 16 8b fa bd bd c8 7f 3c 51 18 72 be f5 50 0c bf
       -0.1223356 0.015611825 -0.23642088 -0.5481103
000130 ca cb c4 be e8 5d 05 3f a9 3e 77 3e 32 52 0d bf
       -0.3843673 0.52096415 0.24144997 -0.55203545
000140 96 dc 9c bd 33 eb aa be 59 b9 33 3d 2d f1 d8 be
       -0.07659261 -0.33382568 0.043877933 -0.42371503
000150 25 4b cb 3e 2e 88 d7 bd 1e 81 ce be 4f 40 c0 3c
       0.39705768 -0.10524021 -0.40332884 0.023468165
000160 2a 2e 63 3e e7 d1 1e 3e cb ba 15 bf fe 19 31 be
       0.22185579 0.15509759 -0.5848815 -0.17295071
000170 91 0e c8 3d 45 29 1a 3f 13 34 85 bd 29 f6 79 bd
       0.09768403 0.6021922 -0.06504073 -0.061025772
000180 45 d3 a1 bd 17 e7 ad 3e 0f 59 ba be db 43 30 3e
       -0.079016246 0.3396537 -0.3639607 0.17213385
000190 83 51 6a be 47 85 8e be 9f 9e e1 be d7 c9 5a 3c
       -0.22882657 -0.27836058 -0.4406633 0.013353786
0001a0 36 2b e3 3e 33 be b5 bd ac ab 5a 3d 90 6e 16 3f
       0.44368905 -0.08874168 0.053386375 0.58762455
0001b0 e7 5f b5 be 07 b1 7b 3f 36 9c e0 be 4b 8f 7a bd
       -0.3542473 0.98317 -0.4386918 -0.06117181
0001c0 4b 96 bc be 6e 17 4f be 8d 51 92 bd e1 e2 b6 3e
       -0.36833414 -0.20223781 -0.07144461 0.3571997
0001d0 48 f7 ca be cd 8c 24 bd 89 6e d0 be 5f 45 8a bd
       -0.39641786 -0.04017334 -0.40709332 -0.06751513
0001e0 c5 cd 47 3d 4d d6 0d bf 80 d2 62 be f2 5b 26 3e
       0.04878022 -0.5540512 -0.22150612 0.16246012
0001f0 c5 94 65 3e c3 11 37 be df 96 f1 be a0 7d be be
       0.22420032 -0.1787787 -0.47185418 -0.3720522
000200 2e a1 90 be 74 d1 83 3e e8 76 a3 3e ed e4 ad be
       -0.2824797 0.25745738 0.31926656 -0.3396372
000210 06 93 37 3f 75 36 89 3e 69 4c ed be 80 38 14 bf
       0.71708715 0.2679936 -0.4634736 -0.5789871
000220 ce 09 47 be 63 c6 14 bf c3 22 52 3e e8 63 f6 be
       -0.19437334 -0.58115214 0.20521073 -0.48123097
000230 c9 ed 72 be fd 84 ad bd 1c cf 2b 3f e2 13 5b bf
       -0.2372352 -0.08472631 0.671129 -0.85577214
000240 ba d9 11 bd d1 26 a3 be 8b 17 93 bd 1d f0 68 bd
       -0.03560803 -0.31865552 -0.07182225 -0.056869615
000250 96 38 9e be 93 6c e2 be dd 26 45 be 07 90 0a bf
       -0.30902547 -0.4422346 -0.19253106 -0.5412602
000260 0c db d1 3e 73 71 a2 be ff 68 1c 3e c7 69 11 bf
       0.40987432 -0.3172718 0.15274428 -0.5680203
000270 bc 06 49 be ab 28 2e 3f 06 7a 05 bf 0e c5 9f be
       -0.19631475 0.68030804 -0.5213932 -0.31205028
000280 3d 3b ca be fe e9 59 be c3 70 96 be 5e 84 ea 3e
       -0.3949832 -0.21280667 -0.29382905 0.45804113
000290 60 e5 b4 be b7 96 c5 3e d2 1a 66 3e eb be eb 3c
       -0.3533125 0.3859155 0.22471169 0.02877756
0002a0 44 f2 8a bd 28 02 97 3e 41 fc 03 3e ac ed 61 be
       -0.0678449 0.29493833 0.12889196 -0.22063321
0002b0 51 91 13 3e 23 0a fe 3d 9f c8 e8 be 14 95 87 be
       0.14410903 0.12404277 -0.45465562 -0.26480925
0002c0 9c f3 87 be 4e e0 ae be 74 63 a5 be 72 70 eb be
       -0.26553047 -0.34155506 -0.3230244 -0.45984226
0002d0 e9 cb cf be 94 68 95 be 33 c3 82 be 99 f0 d8 3e
       -0.4058526 -0.2918135 -0.2553955 0.4237106
0002e0 5c d3 a6 3e 5f 6b 28 3d 9d 88 d3 bd 5b 48 bc be
       0.3258313 0.041118022 -0.10328791 -0.36773953
0002f0 dc 61 ad be b9 0c 20 3e 28 cf c6 3e 89 60 93 bc
       -0.33863723 0.15629853 0.38829923 -0.017990367
000300 6c 6a bd be d2 34 84 be 49 49 8d 3e 9f 2f 4b 3e
       -0.36995256 -0.2582155 0.27594975 0.19842385

fc3.weight f4 [1, 196]
000000 25 88 df bd 87 64 09 3d 77 4b 88 3c c3 47 20 3a
       -0.109146394 0.033543136 0.016637547 0.0006114209
000010 94 37 9c 3c 84 9c 00 be 63 d2 84 ba d9 b2 2c 3c
       0.01906947 -0.12559706 -0.0010133501 0.0105406875
000020 dd 1c 4c bc 1e 85 80 be d2 35 27 bd 73 6c 3a bd
       -0.012458053 -0.2510156 -0.04082281 -0.04551358
000030 10 a9 b8 3c 2b 12 43 3b ed 5f a6 bc f7 fb d4 bd
       0.022541553 0.0029765468 -0.020309413 -0.10399621
000040 1a d5 9e 3c 32 35 a7 bc f5 13 12 3c 10 bd 22 3d
       0.019388724 -0.020411108 0.008915891 0.039731085
000050 95 17 ff bc c4 92 bb 3a 9c a6 55 3c 68 20 9e 3b
       -0.031139174 0.0014310707 0.013040211 0.0048256405
000060 71 8f ab 3c 1e 04 73 3d 2c 86 43 3c 5c 3b dd 3c
       0.020942422 0.0593301 0.011933845 0.027005844
000070 a5 2b 55 3c a6 37 05 bd 5d 49 48 3c 36 5a 26 bc
       0.013010894 -0.032523774 0.012224522 -0.010153344
000080 6b 53 27 bd 19 87 aa bd 07 5c 09 bd c0 84 c2 bd
       -0.040851038 -0.08326549 -0.03353503 -0.09497976
000090 44 e4 c2 3c 1c b3 7c bc 95 40 a3 3c b1 c9 4b bd
       0.023790486 -0.015423562 0.019928256 -0.049752895
0000a0 e7 62 3a 3c ee 8a 8d bd df 02 e3 3c d8 32 a3 bd
       0.011376119 -0.06911264 0.02771133 -0.07968682
0000b0 e8 91 17 be a5 8a 0a 3d 98 e8 f5 bc d0 c0 ff 3c
       -0.14801753 0.033823628 -0.030018136 0.03121987
0000c0 71 dc 32 3c dc b2 88 3c aa 1c e3 bc 35 5d 61 3c
       0.010916815 0.01668685 -0.027723629 0.013755132
0000d0 16 62 54 3c 1f 1c 67 bd 00 c9 2c bc 7b 3e 82 bd
       0.012962839 -0.056423303 -0.010545969 -0.063595735
0000e0 a2 56 9d bc de a3 cc bc 12 7c fd 3d cf b9 23 bd
       -0.019206349 -0.024980482 0.1237718 -0.039972123
0000f0 47 8f 34 3c 43 dd dd 3c 0a 3c e7 3c f4 1d 91 3c
       0.011020488 0.027083045 0.028226871 0.017714478
000100 cc bd 69 3c e4 41 af bc 5a ab d0 3c fb b3 d6 3c
       0.0142664425 -0.021393724 0.025472332 0.026208868
000110 ab 32 10 3d 52 93 73 bc f5 a8 9c 3c ed 1f d6 3c
       0.03520457 -0.014866667 0.019123534 0.02613827
000120 3c 08 df 3b ab 15 ff 3c f2 f0 17 bd 1c 44 08 bd
       0.0068064015 0.031138262 -0.037095018 -0.03326808
000130 43 2e b8 bc 5d 7d 95 3c fe cf b2 3c 5a 1c 57 bd
       -0.022482997 0.018248254 0.021827694 -0.052517273
000140 ca c0 21 bc f5 65 f2 bc 9d 34 de 3b b6 55 cc bc
       -0.009872625 -0.029589633 0.0067811743 -0.024943214
000150 6f 57 1e 3c c2 da 3c 3d c5 1c 61 bd a7 10 6f 3c
       0.0096644005 0.04610706 -0.054959077 0.014591373
000160 f9 fb da 3c 31 69 a4 3c e9 78 61 bd 12 df 0e 3d
       0.026731478 0.02006969 -0.05504695 0.034880705
000170 d4 2c ac 3c eb 46 f8 3c 20 a6 ab 3c 67 bc a6 3c
       0.02101747 0.030307254 0.020953238 0.02035351
000180 b8 c1 ad 3c 8d 5f ed 3c 71 60 c7 bd f9 5b 37 3b
       0.021210536 0.028976226 -0.097351916 0.0027978404
000190 4b 7d a3 bd f1 27 60 bc 54 8e c1 bd 24 20 b6 3c
       -0.07982882 -0.013681398 -0.09450975 0.022232123
0001a0 21 9e 44 3d e3 61 13 3d 27 e6 3d 3c f6 bb 01 3d
       0.048002366 0.035982024 0.011590517 0.031673394
0001b0 0b 20 8a bd a0 61 86 3d 0d 7f 88 bc 6e b7 c0 3c
       -0.06744393 0.06561589 -0.016662145 0.023524966
0001c0 3a 6c b3 bc 4a 85 d7 bd 8c 72 bc 3c 10 a5 10 3d
       -0.021902192 -0.1052347 0.023003839 0.035313666
0001d0 c6 d4 a3 bd 28 36 d4 3c a2 0c b3 bc 9c 5d a0 3c
       -0.07999568 0.02590473 -0.02185661 0.019575886
0001e0 1a c8 a1 3c dc 67 68 bd a0 9a a3 bd e9 0b 05 3d
       0.019748736 -0.056739673 -0.07988477 0.03248206
0001f0 1d 07 7d 3b f4 14 9a bd b0 25 74 bd 87 9b 65 bd
       0.0038608976 -0.07523528 -0.059606254 -0.056056526
000200 0c 20 c7 bd ba 17 00 3c 42 f2 53 3c 26 6f 2c bd
       -0.09722909 0.007818157 0.012936177 -0.042098187
000210 61 39 ea 3c aa 72 4d 3c 4e 88 c8 bd 46 c4 94 bd
       0.028591814 0.012539545 -0.09791623 -0.07263999
000220 2b ac c9 bc 36 ab 07 be 2d 0a 89 3c b7 72 4e bd
       -0.024618229 -0.13248906 0.016728485 -0.05040237
000230 9e 30 3f bd f9 66 2c bd 4e a0 3f 3d 90 b5 71 be
       -0.046677224 -0.04209039 0.046783738 -0.23604417
000240 8c fd 58 3c 0f 71 c7 bd e1 71 aa 3c dc 87 07 bb
       0.013244044 -0.09738361 0.020806255 -0.0020680344
000250 09 43 be bd b8 81 f3 bd 33 75 36 bd d6 2e 5b bd
       -0.0929013 -0.11889976 -0.044545364 -0.053511463
000260 f1 72 ad 3c cd 44 38 bd e6 6e 13 3d 43 94 26 bd
       0.021172972 -0.04498749 0.035994433 -0.040668737
000270 a1 88 1d bd a9 ff 2e 3d 5a 4a 85 bd 7e c5 28 bc
       -0.038460378 0.042724285 -0.06508322 -0.010300992
000280 c8 ac fe bc 84 fb 8d bc 6f d5 98 bd c1 e1 c1 3c
       -0.031088248 -0.017331846 -0.07462584 0.023667218
000290 dd 15 6c bc f4 a8 a2 3c ef bb c6 3c 53 60 29 3c
       -0.0144095095 0.019855954 0.024259536 0.010337907
0002a0 10 2d bf 3b 71 68 22 3e ec f2 88 3c 60 0a 49 3c
       0.0058342293 0.15860154 0.016717397 0.01227054
0002b0 12 5e ca 3c 8f 85 8d 3c 00 7d 72 bd da 2c 3d bc
       0.02470306 0.0172756 -0.05920124 -0.011546338
0002c0 f3 78 8a bc 5b 9a 18 bd f1 30 3d bc 38 17 1e bc
       -0.016903376 -0.03725658 -0.011547313 -0.0096490905
0002d0 3d f6 c7 bc e1 e3 14 be c2 65 db bc da 04 62 3c
       -0.024409408 -0.14540054 -0.02678192 0.013795102
0002e0 08 db c4 3c 5a 23 44 3c 13 37 f6 3c c5 f7 d1 3a
       0.024030223 0.011971319 0.030055558 0.0016019276
0002f0 37 38 f3 bc a6 3d 17 3c e3 32 38 3d fe 52 7a 3c
       -0.029689891 0.009231007 0.044970404 0.015278576
000300 0f 2d 94 bd 82 6a 43 bd 84 0b a9 3c 6f 02 ac 3c
       -0.07235157 -0.047708996 0.020635374 0.020997254
